# https://www.kaggle.com/code/sid2412/cifar10-cnn-model-85-97-accuracy
Model: "sequential_6"
_________________________________________________________________
 Layer (type)                Output Shape              Param #   
=================================================================
 conv2d_12 (Conv2D)          (None, 32, 32, 128)       3584      
                                                                 
 max_pooling2d_10 (MaxPooli  (None, 16, 16, 128)       0         
 ng2D)                                                           
                                                                 
 dropout_6 (Dropout)         (None, 16, 16, 128)       0         
                                                                 
 conv2d_13 (Conv2D)          (None, 16, 16, 256)       295168    
                                                                 
 max_pooling2d_11 (MaxPooli  (None, 8, 8, 256)         0         
 ng2D)                                                           
                                                                 
 dropout_7 (Dropout)         (None, 8, 8, 256)         0         
                                                                 
 conv2d_14 (Conv2D)          (None, 8, 8, 512)         1180160   
                                                                 
 conv2d_15 (Conv2D)          (None, 8, 8, 512)         2359808   
                                                                 
 conv2d_16 (Conv2D)          (None, 8, 8, 256)         1179904   
                                                                 
 max_pooling2d_12 (MaxPooli  (None, 4, 4, 256)         0         
 ng2D)                                                           
                                                                 
 dropout_8 (Dropout)         (None, 4, 4, 256)         0         
                                                                 
 flatten_6 (Flatten)         (None, 4096)              0         
                                                                 
 dense_7 (Dense)             (None, 512)               2097664   
                                                                 
 dropout_9 (Dropout)         (None, 512)               0         
                                                                 
 dense_8 (Dense)             (None, 256)               131328    
                                                                 
 dropout_10 (Dropout)        (None, 256)               0         
                                                                 
 dense_9 (Dense)             (None, 128)               32896     
                                                                 
 dropout_11 (Dropout)        (None, 128)               0         
                                                                 
 dense_10 (Dense)            (None, 10)                1290      
                                                                 
=================================================================
Total params: 7281802 (27.78 MB)
Trainable params: 7281802 (27.78 MB)
Non-trainable params: 0 (0.00 Byte)
_________________________________________________________________
Fit model on training data
Epoch 1/60
88/88 [==============================] - 44s 317ms/step - loss: 3.1341 - sparse_categorical_accuracy: 0.1024 - val_loss: 2.4501 - val_sparse_categorical_accuracy: 0.1266
…
