Model: "sequential_8"
_________________________________________________________________
 Layer (type)                Output Shape              Param #   
=================================================================
 conv2d_20 (Conv2D)          (None, 32, 32, 128)       3584      
                                                                 
 max_pooling2d_16 (MaxPooli  (None, 16, 16, 128)       0         
 ng2D)                                                           
                                                                 
 conv2d_21 (Conv2D)          (None, 16, 16, 256)       295168    
                                                                 
 max_pooling2d_17 (MaxPooli  (None, 8, 8, 256)         0         
 ng2D)                                                           
                                                                 
 flatten_8 (Flatten)         (None, 16384)             0         
                                                                 
 dropout_13 (Dropout)        (None, 16384)             0         
                                                                 
 dense_12 (Dense)            (None, 10)                163850    
                                                                 
=================================================================
Total params: 462602 (1.76 MB)
Trainable params: 462602 (1.76 MB)
Non-trainable params: 0 (0.00 Byte)
_________________________________________________________________
Fit model on training data
Epoch 1/60
88/88 [==============================] - 5s 52ms/step - loss: 6.5787 - sparse_categorical_accuracy: 0.2412 - val_loss: 1.5616 - val_sparse_categorical_accuracy: 0.4396
…
