Model: "sequential_4"
_________________________________________________________________
 Layer (type)                Output Shape              Param #   
=================================================================
 conv2d_8 (Conv2D)           (None, 30, 30, 32)        896       
                                                                 
 max_pooling2d_8 (MaxPoolin  (None, 15, 15, 32)        0         
 g2D)                                                            
                                                                 
 conv2d_9 (Conv2D)           (None, 13, 13, 64)        18496     
                                                                 
 max_pooling2d_9 (MaxPoolin  (None, 6, 6, 64)          0         
 g2D)                                                            
                                                                 
 flatten_4 (Flatten)         (None, 2304)              0         
                                                                 
 dropout_4 (Dropout)         (None, 2304)              0         
                                                                 
 dense_5 (Dense)             (None, 10)                23050     
                                                                 
=================================================================
Total params: 42442 (165.79 KB)
Trainable params: 42442 (165.79 KB)
Non-trainable params: 0 (0.00 Byte)
_________________________________________________________________
Fit model on training data
Epoch 1/60
88/88 [==============================] - 2s 14ms/step - loss: 4.2490 - sparse_categorical_accuracy: 0.2186 - val_loss: 1.7641 - val_sparse_categorical_accuracy: 0.3494
…
