Model: "sequential_9"
_________________________________________________________________
 Layer (type)                Output Shape              Param #   
=================================================================
 conv2d_22 (Conv2D)          (None, 32, 32, 128)       3584      
                                                                 
 max_pooling2d_18 (MaxPooli  (None, 16, 16, 128)       0         
 ng2D)                                                           
                                                                 
 dropout_14 (Dropout)        (None, 16, 16, 128)       0         
                                                                 
 conv2d_23 (Conv2D)          (None, 16, 16, 256)       295168    
                                                                 
 max_pooling2d_19 (MaxPooli  (None, 8, 8, 256)         0         
 ng2D)                                                           
                                                                 
 dropout_15 (Dropout)        (None, 8, 8, 256)         0         
                                                                 
 flatten_9 (Flatten)         (None, 16384)             0         
                                                                 
 dense_13 (Dense)            (None, 10)                163850    
                                                                 
=================================================================
Total params: 462602 (1.76 MB)
Trainable params: 462602 (1.76 MB)
Non-trainable params: 0 (0.00 Byte)
_________________________________________________________________
Fit model on training data
Epoch 1/60
88/88 [==============================] - 7s 74ms/step - loss: 14.6749 - sparse_categorical_accuracy: 0.1055 - val_loss: 2.3025 - val_sparse_categorical_accuracy: 0.0958
…
