Model: "sequential_1"
_________________________________________________________________
 Layer (type)                Output Shape              Param #   
=================================================================
 conv2d_2 (Conv2D)           (None, 30, 30, 32)        896       
                                                                 
 max_pooling2d_2 (MaxPoolin  (None, 15, 15, 32)        0         
 g2D)                                                            
                                                                 
 conv2d_3 (Conv2D)           (None, 13, 13, 64)        18496     
                                                                 
 max_pooling2d_3 (MaxPoolin  (None, 6, 6, 64)          0         
 g2D)                                                            
                                                                 
 flatten_1 (Flatten)         (None, 2304)              0         
                                                                 
 dropout_1 (Dropout)         (None, 2304)              0         
                                                                 
 dense_1 (Dense)             (None, 10)                23050     
                                                                 
=================================================================
Total params: 42442 (165.79 KB)
Trainable params: 42442 (165.79 KB)
Non-trainable params: 0 (0.00 Byte)
_________________________________________________________________
Fit model on training data
Epoch 1/60
352/352 [==============================] - 4s 7ms/step - loss: 3.2217 - sparse_categorical_accuracy: 0.1680 - val_loss: 1.9871 - val_sparse_categorical_accuracy: 0.2884
…
