Model: "sequential_2"
_________________________________________________________________
 Layer (type)                Output Shape              Param #   
=================================================================
 conv2d_4 (Conv2D)           (None, 30, 30, 32)        896       
                                                                 
 max_pooling2d_4 (MaxPoolin  (None, 15, 15, 32)        0         
 g2D)                                                            
                                                                 
 conv2d_5 (Conv2D)           (None, 13, 13, 64)        18496     
                                                                 
 max_pooling2d_5 (MaxPoolin  (None, 6, 6, 64)          0         
 g2D)                                                            
                                                                 
 flatten_2 (Flatten)         (None, 2304)              0         
                                                                 
 dropout_2 (Dropout)         (None, 2304)              0         
                                                                 
 dense_2 (Dense)             (None, 10)                23050     
                                                                 
=================================================================
Total params: 42442 (165.79 KB)
Trainable params: 42442 (165.79 KB)
Non-trainable params: 0 (0.00 Byte)
_________________________________________________________________
Fit model on training data
Epoch 1/60
88/88 [==============================] - 3s 21ms/step - loss: 7.8749 - sparse_categorical_accuracy: 0.1205 - val_loss: 2.2788 - val_sparse_categorical_accuracy: 0.1296
…
