Model: "sequential_7"
_________________________________________________________________
 Layer (type)                Output Shape              Param #   
=================================================================
 conv2d_17 (Conv2D)          (None, 32, 32, 128)       3584      
                                                                 
 max_pooling2d_13 (MaxPooli  (None, 16, 16, 128)       0         
 ng2D)                                                           
                                                                 
 conv2d_18 (Conv2D)          (None, 16, 16, 256)       295168    
                                                                 
 max_pooling2d_14 (MaxPooli  (None, 8, 8, 256)         0         
 ng2D)                                                           
                                                                 
 conv2d_19 (Conv2D)          (None, 8, 8, 512)         1180160   
                                                                 
 max_pooling2d_15 (MaxPooli  (None, 4, 4, 512)         0         
 ng2D)                                                           
                                                                 
 flatten_7 (Flatten)         (None, 8192)              0         
                                                                 
 dropout_12 (Dropout)        (None, 8192)              0         
                                                                 
 dense_11 (Dense)            (None, 10)                81930     
                                                                 
=================================================================
Total params: 1560842 (5.95 MB)
Trainable params: 1560842 (5.95 MB)
Non-trainable params: 0 (0.00 Byte)
_________________________________________________________________
Fit model on training data
Epoch 1/60
88/88 [==============================] - 8s 78ms/step - loss: 4.5039 - sparse_categorical_accuracy: 0.3223 - val_loss: 1.4908 - val_sparse_categorical_accuracy: 0.4560
…
