Model: "sequential"
_________________________________________________________________
 Layer (type)                Output Shape              Param #   
=================================================================
 conv2d (Conv2D)             (None, 28, 28, 32)        2432      
                                                                 
 max_pooling2d (MaxPooling2  (None, 14, 14, 32)        0         
 D)                                                              
                                                                 
 conv2d_1 (Conv2D)           (None, 10, 10, 64)        51264     
                                                                 
 max_pooling2d_1 (MaxPoolin  (None, 5, 5, 64)          0         
 g2D)                                                            
                                                                 
 flatten (Flatten)           (None, 1600)              0         
                                                                 
 dropout (Dropout)           (None, 1600)              0         
                                                                 
 dense (Dense)               (None, 10)                16010     
                                                                 
=================================================================
Total params: 69706 (272.29 KB)
Trainable params: 69706 (272.29 KB)
Non-trainable params: 0 (0.00 Byte)
_________________________________________________________________
Fit model on training data
Epoch 1/60
352/352 [==============================] - 8s 7ms/step - loss: 3.1056 - sparse_categorical_accuracy: 0.1054 - val_loss: 2.3024 - val_sparse_categorical_accuracy: 0.0958
…
