Model: "sequential_5"
_________________________________________________________________
 Layer (type)                Output Shape              Param #   
=================================================================
 conv2d_10 (Conv2D)          (None, 16, 16, 32)        896       
                                                                 
 conv2d_11 (Conv2D)          (None, 8, 8, 64)          18496     
                                                                 
 flatten_5 (Flatten)         (None, 4096)              0         
                                                                 
 dropout_5 (Dropout)         (None, 4096)              0         
                                                                 
 dense_6 (Dense)             (None, 10)                40970     
                                                                 
=================================================================
Total params: 60362 (235.79 KB)
Trainable params: 60362 (235.79 KB)
Non-trainable params: 0 (0.00 Byte)
_________________________________________________________________
Fit model on training data
Epoch 1/60
88/88 [==============================] - 3s 13ms/step - loss: 5.2719 - sparse_categorical_accuracy: 0.1810 - val_loss: 1.9688 - val_sparse_categorical_accuracy: 0.2930
…
