Model: "sequential_14"
_________________________________________________________________
 Layer (type)                Output Shape              Param #   
=================================================================
 conv2d_24 (Conv2D)          (None, 30, 30, 32)        896       
                                                                 
 max_pooling2d_20 (MaxPooli  (None, 15, 15, 32)        0         
 ng2D)                                                           
                                                                 
 conv2d_25 (Conv2D)          (None, 13, 13, 64)        18496     
                                                                 
 max_pooling2d_21 (MaxPooli  (None, 6, 6, 64)          0         
 ng2D)                                                           
                                                                 
 flatten_14 (Flatten)        (None, 2304)              0         
                                                                 
 dense_22 (Dense)            (None, 128)               295040    
                                                                 
 dense_23 (Dense)            (None, 10)                1290      
                                                                 
=================================================================
Total params: 315722 (1.20 MB)
Trainable params: 315722 (1.20 MB)
Non-trainable params: 0 (0.00 Byte)
_________________________________________________________________
Fit model on training data
Epoch 1/60
88/88 [==============================] - 3s 19ms/step - loss: 5.3181 - sparse_categorical_accuracy: 0.2102 - val_loss: 1.7688 - val_sparse_categorical_accuracy: 0.3708
…
